…
   "cell_type": "code",
   "execution_count": null,
   "metadata": {
    "colab": {
     "base_uri": "https://localhost:8080/"
    },
    "id": "dZK8pKEfsj0-",
    "outputId": "da445a2d-2375-4f7d-f190-2b9c26afaf9e"
   },
   "outputs": [
    {
     "name": "stdout",
     "output_type": "stream",
     "text": [
      "Model: \"sequential_6\"\n",
      "_________________________________________________________________\n",
      "Layer (type)                 Output Shape              Param #   \n",
      "=================================================================\n",
      "conv2d_4 (Conv2D)            (None, 24, 24, 10)        260       \n",
      "_________________________________________________________________\n",
      "max_pooling2d_4 (MaxPooling2 (None, 12, 12, 10)        0         \n",
      "_________________________________________________________________\n",
      "conv2d_5 (Conv2D)            (None, 8, 8, 20)          5020      \n",
      "_________________________________________________________________\n",
      "max_pooling2d_5 (MaxPooling2 (None, 4, 4, 20)          0         \n",
      "_________________________________________________________________\n",
      "dropout_4 (Dropout)          (None, 4, 4, 20)          0         \n",
      "_________________________________________________________________\n",
      "flatten_6 (Flatten)          (None, 320)               0         \n",
      "_________________________________________________________________\n",
      "dense_12 (Dense)             (None, 50)                16050     \n",
      "_________________________________________________________________\n",
      "dropout_5 (Dropout)          (None, 50)                0         \n",
      "_________________________________________________________________\n",
      "dense_13 (Dense)             (None, 10)                510       \n",
      "=================================================================\n",
      "Total params: 21,840\n",
      "Trainable params: 21,840\n",
      "Non-trainable params: 0\n",
      "_________________________________________________________________\n",
      "Epoch 1/40\n",
      "235/235 [==============================] - 23s 100ms/step - loss: 0.9772 - accuracy: 0.6711 - val_loss: 0.1788 - val_accuracy: 0.9508\n",
…
